{"format": "torch", "nodes": [{"name": "mdl", "id": 140399569548768, "class_name": "Bridge(\n  (encoder_embeddings): TransformerHiddens(\n    (trans_parameters): BertModel(\n      (embeddings): BertEmbeddings(\n        (word_embeddings): Embedding(30522, 768, padding_idx=0)\n        (position_embeddings): Embedding(512, 768)\n        (token_type_embeddings): Embedding(2, 768)\n        (LayerNorm): LayerNorm((768,), eps=1e-12, elementwise_affine=True)\n        (dropout): Dropout(p=0.1, inplace=False)\n      )\n      (encoder): BertEncoder(\n        (layer): ModuleList(\n          (0): BertLayer(\n            (attention): BertAttention(\n              (self): BertSelfAttention(\n                (query): Linear(in_features=768, out_features=768, bias=True)\n                (key): Linear(in_features=768, out_features=768, bias=True)\n                (value): Linear(in_features=768, out_features=768, bias=True)\n                (dropout): Dropout(p=0.1, inplace=False)\n              )\n              (output): BertSelfOutput(\n                (dense): Linear(in_features=768, out_features=768, bias=True)\n                (LayerNorm): LayerNorm((768,), eps=1e-12, elementwise_affine=True)\n                (dropout): Dropout(p=0.1, inplace=False)\n              )\n            )\n            (intermediate): BertIntermediate(\n              (dense): Linear(in_features=768, out_features=3072, bias=True)\n            )\n            (output): BertOutput(\n              (dense): Linear(in_features=3072, out_features=768, bias=True)\n              (LayerNorm): LayerNorm((768,), eps=1e-12, elementwise_affine=True)\n              (dropout): Dropout(p=0.1, inplace=False)\n            )\n          )\n          (1): BertLayer(\n            (attention): BertAttention(\n              (self): BertSelfAttention(\n                (query): Linear(in_features=768, out_features=768, bias=True)\n                (key): Linear(in_features=768, out_features=768, bias=True)\n                (value): Linear(in_features=768, out_features=768, bias=True)\n                (dropout): Dropout(p=0.1, inplace=False)\n              )\n              (output): BertSelfOutput(\n                (dense): Linear(in_features=768, out_features=768, bias=True)\n                (LayerNorm): LayerNorm((768,), eps=1e-12, elementwise_affine=True)\n                (dropout): Dropout(p=0.1, inplace=False)\n              )\n            )\n            (intermediate): BertIntermediate(\n              (dense): Linear(in_features=768, out_features=3072, bias=True)\n            )\n            (output): BertOutput(\n              (dense): Linear(in_features=3072, out_features=768, bias=True)\n              (LayerNorm): LayerNorm((768,), eps=1e-12, elementwise_affine=True)\n              (dropout): Dropout(p=0.1, inplace=False)\n            )\n          )\n          (2): BertLayer(\n            (attention): BertAttention(\n              (self): BertSelfAttention(\n                (query): Linear(in_features=768, out_features=768, bias=True)\n                (key): Linear(in_features=768, out_features=768, bias=True)\n                (value): Linear(in_features=768, out_features=768, bias=True)\n                (dropout): Dropout(p=0.1, inplace=False)\n              )\n              (output): BertSelfOutput(\n                (dense): Linear(in_features=768, out_features=768, bias=True)\n                (LayerNorm): LayerNorm((768,), eps=1e-12, elementwise_affine=True)\n                (dropout): Dropout(p=0.1, inplace=False)\n              )\n            )\n            (intermediate): BertIntermediate(\n              (dense): Linear(in_features=768, out_features=3072, bias=True)\n            )\n            (output): BertOutput(\n              (dense): Linear(in_features=3072, out_features=768, bias=True)\n              (LayerNorm): LayerNorm((768,), eps=1e-12, elementwise_affine=True)\n              (dropout): Dropout(p=0.1, inplace=False)\n            )\n          )\n          (3): BertLayer(\n            (attention): BertAttention(\n              (self): BertSelfAttention(\n                (query): Linear(in_features=768, out_features=768, bias=True)\n                (key): Linear(in_features=768, out_features=768, bias=True)\n                (value): Linear(in_features=768, out_features=768, bias=True)\n                (dropout): Dropout(p=0.1, inplace=False)\n              )\n              (output): BertSelfOutput(\n                (dense): Linear(in_features=768, out_features=768, bias=True)\n                (LayerNorm): LayerNorm((768,), eps=1e-12, elementwise_affine=True)\n                (dropout): Dropout(p=0.1, inplace=False)\n              )\n            )\n            (intermediate): BertIntermediate(\n              (dense): Linear(in_features=768, out_features=3072, bias=True)\n            )\n            (output): BertOutput(\n              (dense): Linear(in_features=3072, out_features=768, bias=True)\n              (LayerNorm): LayerNorm((768,), eps=1e-12, elementwise_affine=True)\n              (dropout): Dropout(p=0.1, inplace=False)\n            )\n          )\n          (4): BertLayer(\n            (attention): BertAttention(\n              (self): BertSelfAttention(\n                (query): Linear(in_features=768, out_features=768, bias=True)\n                (key): Linear(in_features=768, out_features=768, bias=True)\n                (value): Linear(in_features=768, out_features=768, bias=True)\n                (dropout): Dropout(p=0.1, inplace=False)\n              )\n              (output): BertSelfOutput(\n                (dense): Linear(in_features=768, out_features=768, bias=True)\n                (LayerNorm): LayerNorm((768,), eps=1e-12, elementwise_affine=True)\n                (dropout): Dropout(p=0.1, inplace=False)\n              )\n            )\n            (intermediate): BertIntermediate(\n              (dense): Linear(in_features=768, out_features=3072, bias=True)\n            )\n            (output): BertOutput(\n              (dense): Linear(in_features=3072, out_features=768, bias=True)\n              (LayerNorm): LayerNorm((768,), eps=1e-12, elementwise_affine=True)\n              (dropout): Dropout(p=0.1, inplace=False)\n            )\n          )\n          (5): BertLayer(\n            (attention): BertAttention(\n              (self): BertSelfAttention(\n                (query): Linear(in_features=768, out_features=768, bias=True)\n                (key): Linear(in_features=768, out_features=768, bias=True)\n                (value): Linear(in_features=768, out_features=768, bias=True)\n                (dropout): Dropout(p=0.1, inplace=False)\n              )\n              (output): BertSelfOutput(\n                (dense): Linear(in_features=768, out_features=768, bias=True)\n                (LayerNorm): LayerNorm((768,), eps=1e-12, elementwise_affine=True)\n                (dropout): Dropout(p=0.1, inplace=False)\n              )\n            )\n            (intermediate): BertIntermediate(\n              (dense): Linear(in_features=768, out_features=3072, bias=True)\n            )\n            (output): BertOutput(\n              (dense): Linear(in_features=3072, out_features=768, bias=True)\n              (LayerNorm): LayerNorm((768,), eps=1e-12, elementwise_affine=True)\n              (dropout): Dropout(p=0.1, inplace=False)\n            )\n          )\n          (6): BertLayer(\n            (attention): BertAttention(\n              (self): BertSelfAttention(\n                (query): Linear(in_features=768, out_features=768, bias=True)\n                (key): Linear(in_features=768, out_features=768, bias=True)\n                (value): Linear(in_features=768, out_features=768, bias=True)\n                (dropout): Dropout(p=0.1, inplace=False)\n              )\n              (output): BertSelfOutput(\n                (dense): Linear(in_features=768, out_features=768, bias=True)\n                (LayerNorm): LayerNorm((768,), eps=1e-12, elementwise_affine=True)\n                (dropout): Dropout(p=0.1, inplace=False)\n              )\n            )\n            (intermediate): BertIntermediate(\n              (dense): Linear(in_features=768, out_features=3072, bias=True)\n            )\n            (output): BertOutput(\n              (dense): Linear(in_features=3072, out_features=768, bias=True)\n              (LayerNorm): LayerNorm((768,), eps=1e-12, elementwise_affine=True)\n              (dropout): Dropout(p=0.1, inplace=False)\n            )\n          )\n          (7): BertLayer(\n            (attention): BertAttention(\n              (self): BertSelfAttention(\n                (query): Linear(in_features=768, out_features=768, bias=True)\n                (key): Linear(in_features=768, out_features=768, bias=True)\n                (value): Linear(in_features=768, out_features=768, bias=True)\n                (dropout): Dropout(p=0.1, inplace=False)\n              )\n              (output): BertSelfOutput(\n                (dense): Linear(in_features=768, out_features=768, bias=True)\n                (LayerNorm): LayerNorm((768,), eps=1e-12, elementwise_affine=True)\n                (dropout): Dropout(p=0.1, inplace=False)\n              )\n            )\n            (intermediate): BertIntermediate(\n              (dense): Linear(in_features=768, out_features=3072, bias=True)\n            )\n            (output): BertOutput(\n              (dense): Linear(in_features=3072, out_features=768, bias=True)\n              (LayerNorm): LayerNorm((768,), eps=1e-12, elementwise_affine=True)\n              (dropout): Dropout(p=0.1, inplace=False)\n            )\n          )\n          (8): BertLayer(\n            (attention): BertAttention(\n              (self): BertSelfAttention(\n                (query): Linear(in_features=768, out_features=768, bias=True)\n                (key): Linear(in_features=768, out_features=768, bias=True)\n                (value): Linear(in_features=768, out_features=768, bias=True)\n                (dropout): Dropout(p=0.1, inplace=False)\n              )\n              (output): BertSelfOutput(\n                (dense): Linear(in_features=768, out_features=768, bias=True)\n                (LayerNorm): LayerNorm((768,), eps=1e-12, elementwise_affine=True)\n                (dropout): Dropout(p=0.1, inplace=False)\n              )\n            )\n            (intermediate): BertIntermediate(\n              (dense): Linear(in_features=768, out_features=3072, bias=True)\n            )\n            (output): BertOutput(\n              (dense): Linear(in_features=3072, out_features=768, bias=True)\n              (LayerNorm): LayerNorm((768,), eps=1e-12, elementwise_affine=True)\n              (dropout): Dropout(p=0.1, inplace=False)\n            )\n          )\n          (9): BertLayer(\n            (attention): BertAttention(\n              (self): BertSelfAttention(\n                (query): Linear(in_features=768, out_features=768, bias=True)\n                (key): Linear(in_features=768, out_features=768, bias=True)\n                (value): Linear(in_features=768, out_features=768, bias=True)\n                (dropout): Dropout(p=0.1, inplace=False)\n              )\n              (output): BertSelfOutput(\n                (dense): Linear(in_features=768, out_features=768, bias=True)\n                (LayerNorm): LayerNorm((768,), eps=1e-12, elementwise_affine=True)\n                (dropout): Dropout(p=0.1, inplace=False)\n              )\n            )\n            (intermediate): BertIntermediate(\n              (dense): Linear(in_features=768, out_features=3072, bias=True)\n            )\n            (output): BertOutput(\n              (dense): Linear(in_features=3072, out_features=768, bias=True)\n              (LayerNorm): LayerNorm((768,), eps=1e-12, elementwise_affine=True)\n              (dropout): Dropout(p=0.1, inplace=False)\n            )\n          )\n          (10): BertLayer(\n            (attention): BertAttention(\n              (self): BertSelfAttention(\n                (query): Linear(in_features=768, out_features=768, bias=True)\n                (key): Linear(in_features=768, out_features=768, bias=True)\n                (value): Linear(in_features=768, out_features=768, bias=True)\n                (dropout): Dropout(p=0.1, inplace=False)\n              )\n              (output): BertSelfOutput(\n                (dense): Linear(in_features=768, out_features=768, bias=True)\n                (LayerNorm): LayerNorm((768,), eps=1e-12, elementwise_affine=True)\n                (dropout): Dropout(p=0.1, inplace=False)\n              )\n            )\n            (intermediate): BertIntermediate(\n              (dense): Linear(in_features=768, out_features=3072, bias=True)\n            )\n            (output): BertOutput(\n              (dense): Linear(in_features=3072, out_features=768, bias=True)\n              (LayerNorm): LayerNorm((768,), eps=1e-12, elementwise_affine=True)\n              (dropout): Dropout(p=0.1, inplace=False)\n            )\n          )\n          (11): BertLayer(\n            (attention): BertAttention(\n              (self): BertSelfAttention(\n                (query): Linear(in_features=768, out_features=768, bias=True)\n                (key): Linear(in_features=768, out_features=768, bias=True)\n                (value): Linear(in_features=768, out_features=768, bias=True)\n                (dropout): Dropout(p=0.1, inplace=False)\n              )\n              (output): BertSelfOutput(\n                (dense): Linear(in_features=768, out_features=768, bias=True)\n                (LayerNorm): LayerNorm((768,), eps=1e-12, elementwise_affine=True)\n                (dropout): Dropout(p=0.1, inplace=False)\n              )\n            )\n            (intermediate): BertIntermediate(\n              (dense): Linear(in_features=768, out_features=3072, bias=True)\n            )\n            (output): BertOutput(\n              (dense): Linear(in_features=3072, out_features=768, bias=True)\n              (LayerNorm): LayerNorm((768,), eps=1e-12, elementwise_affine=True)\n              (dropout): Dropout(p=0.1, inplace=False)\n            )\n          )\n        )\n      )\n      (pooler): BertPooler(\n        (dense): Linear(in_features=768, out_features=768, bias=True)\n        (activation): Tanh()\n      )\n    )\n    (dropout): Dropout(p=0.0, inplace=False)\n  )\n  (decoder_embeddings): Embedding(\n    (embeddings): Embedding(99, 400)\n    (dropout): Dropout(p=0.3, inplace=False)\n  )\n  (encoder): SchemaAwareTransformerEncoder(\n    (bilstm_encoder): RNNEncoder(\n      (rnn): LSTMWithPacking(\n        (rnn): WeightDropoutLSTM(\n          (rnn): LSTM(768, 200, batch_first=True, bidirectional=True)\n        )\n      )\n    )\n    (text_encoder): RNNEncoder(\n      (rnn): LSTMWithPacking(\n        (rnn): WeightDropoutLSTM(\n          (rnn): LSTM(400, 200, batch_first=True, bidirectional=True)\n        )\n      )\n    )\n    (schema_encoder): SchemaEncoder(\n      (primary_key_embeddings): Embedding(\n        (embeddings): Embedding(2, 400)\n        (dropout): Dropout(p=0.3, inplace=False)\n      )\n      (foreign_key_embeddings): Embedding(\n        (embeddings): Embedding(2, 400)\n        (dropout): Dropout(p=0.3, inplace=False)\n      )\n      (field_type_embeddings): Embedding(\n        (embeddings): Embedding(6, 400)\n        (dropout): Dropout(p=0.3, inplace=False)\n      )\n      (feature_fusion_layer): Feedforward(\n        (input_dropout): Dropout(p=0.4, inplace=False)\n        (hidden_dropout): Dropout(p=0.0, inplace=False)\n        (linear1): Linear(in_features=1600, out_features=400, bias=True)\n        (linear2): Linear(in_features=400, out_features=400, bias=True)\n      )\n      (field_table_fusion_layer): FusionLayer(\n        (res_dropout): Dropout(p=0.2, inplace=False)\n        (layer_dropout): Dropout(p=0.0, inplace=False)\n        (layer_norm): LayerNorm()\n        (res_feed_forward): ResidualBlock(\n          (mdl_with_residual_connection): ResidualConnectionWrapper(\n            (mdl): Feedforward(\n              (input_dropout): Dropout(p=0.4, inplace=False)\n              (hidden_dropout): Dropout(p=0.0, inplace=False)\n              (linear1): Linear(in_features=400, out_features=400, bias=True)\n              (linear2): Linear(in_features=400, out_features=400, bias=True)\n            )\n            (res_dropout): Dropout(p=0.2, inplace=False)\n            (layer_dropout): Dropout(p=0.0, inplace=False)\n          )\n          (layer_norm): LayerNorm()\n        )\n      )\n    )\n  )\n  (decoder): BridgeDecoder(\n    (out): LogSoftmaxOutput(\n      (linear): Linear(in_features=400, out_features=99, bias=True)\n      (log_softmax): LogSoftmax(dim=-1)\n    )\n    (rnn): WeightDropoutLSTM(\n      (rnn): LSTM(800, 400, batch_first=True)\n    )\n    (attn): MultiHead(\n      (attention): AttentionDotProduct(\n        (dropout): Dropout(p=0.0, inplace=False)\n      )\n      (wq): Linear(in_features=400, out_features=400, bias=False)\n      (wk): Linear(in_features=400, out_features=400, bias=False)\n      (wv): Linear(in_features=400, out_features=400, bias=False)\n      (wo): Linear(in_features=400, out_features=400, bias=False)\n    )\n    (attn_combine): ConcatAndProject(\n      (input_dropout): Dropout(p=0.4, inplace=False)\n      (linear1): Linear(in_features=800, out_features=400, bias=True)\n    )\n    (pointer_switch): PointerSwitch(\n      (project): ConcatAndProject(\n        (input_dropout): Dropout(p=0.4, inplace=False)\n        (linear1): Linear(in_features=800, out_features=1, bias=True)\n      )\n    )\n  )\n)", "parameters": [["encoder_embeddings.trans_parameters.embeddings.word_embeddings.weight", [30522, 768]], ["encoder_embeddings.trans_parameters.embeddings.position_embeddings.weight", [512, 768]], ["encoder_embeddings.trans_parameters.embeddings.token_type_embeddings.weight", [2, 768]], ["encoder_embeddings.trans_parameters.embedd
…
